pytorch-play/convnet.ckpt (torch, 250951 bytes, 10 tensors)

conv1.weight f4 [6, 3, 5, 5]
00000000: 91d5 d53d 847c 883d 1acb d53c 8f66 b93d
00000010: 25ea a23d 6efb e73d 7fef 763d 7d03 8abd
00000020: 7932 523d a743 6a3d 1eb4 e3bd 305e 89bd
00000030: 9b99 793d da8e c8bd 2b8d a03d 9e8e 43bc
00000040: dfaa 463d ffdf 73bd 522b bbbd bccd f13c
00000050: 09c2 243c 976e 2cbd 7d43 c0bd 390e c03c
00000060: e180 cd3c f28d 993d b7ed 54bd 3166 0c3c
00000070: ead9 8ebd c4ad 7f3d 1e8a 9b3c 3afc c0bd
00000080: 2eb8 e33c cdf8 98bc 2882 933d 7a73 9b3d
00000090: e862 9d3c 21c0 e03d be3a 83bb 6f4b 65b9
000000a0: b72a 07bd 469d 95bd d52b 0abd 3cbd 0e3d
000000b0: 80ad 3b3d 4765 9cbb ce90 823d f302 b93d
000000c0: 8d49 083d 3675 c5bd 2d0f e33d c75c 4e3d
000000d0: 608f 693d 2bf8 f23c aac5 afbd d0d8 b83d
000000e0: 6bb5 153d a169 943d 3873 a73d 3e5c 943d
000000f0: a583 263d f2b3 603c b958 82bc 65b3 d6bd
00000100: 8d8a 8bbd 948d da3d 8725 5c3d f3f8 e73c
00000110: 6a20 c23d edd8 58bd ef8f 0b3c f863 a9bc
00000120: b623 f8bb 3e2f 1abc b33a 46bd 2c51 9e3d
00000130: 5a06 86bd fd8d 833d 9928 9c3d c7b8 833c
00000140: a7f3 6cbd 1f26 c7bd 6c2e a9bd d49e a5bc
00000150: 08f7 dabd 3854 12bc eb6a 22bd 6eda d53b
00000160: 0b98 acbd a7c9 b93d 6161 843d 4d79 423d
00000170: bd48 a53d 26a5 0d3d ab1b ad3d 99db 50bc
00000180: 928d 9cbd 802b ebbc 4461 ba3c f774 e33d
00000190: b048 873d ba7f adbd 99a0 a3bd c643 debc
000001a0: 90f2 0abd 918f 4abd ca89 283d f401 8abd
000001b0: 366c b83c 8826 b3bd eb16 16bc e0e3 303d
000001c0: d343 42bc 9152 7fbd fe05 2e3d eeb5 bb3c
000001d0: 52f4 71bd da70 a63c 2630 21bc 4a7d dabd
000001e0: 1603 77bd bace bfbd 2d8d c8bd b95e db3d
000001f0: 9f6c c8bd 2c72 bb3d 0db5 7b3d 809f 87bd
00000200: 19ca e7bd e3a7 dbbd 8a11 dbbc 5189 a23d
00000210: d0da babc 44f2 213d 5223 9abc 2769 ae3b
00000220: ba3c cb3b ec8d 17bd 5c8c 4f3d d471 e23d
00000230: 7812 cebd 7955 a83d b6ef a2bd acd4 e9bc
00000240: 4b0f 47bd a071 0bbd 0044 86bd 89e1 6cbd
00000250: cd8a e8bd 780f 88bc d5ec 6ebb 26f4 ccbc
00000260: 611d eabd 4bd9 8ebd a850 3bbd 86d6 dbbd
00000270: 8b4c ae3d c703 cdbd 9595 a53d a554 913d
00000280: 297d 4abc a5af 933d a2fa bcbc 1f43 c13d
00000290: 1ad1 963d 2004 55bd 344f 633d 10a0 c83d
000002a0: d24a bc3d 4dee 5ebd 9468 83bd 084e 6cbd
000002b0: 248f 59bd d725 923d fae8 1fbd 118c c9bd
000002c0: 4cf7 2e39 767d 32bc b39d e73d 3f65 93bc
000002d0: b077 daba 5537 d13d 9b79 89bd 1411 e9bd
000002e0: af13 953d 35f8 bcbc c731 c43b aa9b 2ebd
000002f0: 78b8 bbbc 8f5d c6bd d0c9 ffbc 0632 a4bd
00000300: ac42 103d 4b95 dfbc c8d5 153d 236f bebc
00000310: 0369 0e3c 6edb f7bc ac61 7f3d de15 81bc
00000320: ba1d 0e3c 7b67 a1bd dbc8 0dbb c2fa 1a3d
00000330: 559e 6c3d 0bc6 89bd 2cdc 4c3d b912 ea3c
00000340: 61a4 04bd eb5f 553c 5ade febb 4ac2 e3bd
00000350: 6227 2fbd bab0 9d3d 36b1 e83c 4e48 8f3d
00000360: 8848 c9bd 7ada b83d 9c72 1e3d 9ea5 9bbd
00000370: 9b84 a33c 119b 19bd ed18 98bd 73a3 95bc
00000380: 8945 d4bc 0a4f c83d 4f06 6cbd e445 f83c
00000390: ad8e b63d ca0b 2f3c 1419 16bd e713 40bd
000003a0: b8f5 96bd 9686 a73c deb2 dc3d 153a f93c
000003b0: ab79 c1bc 59b4 ddbd a3c8 40bd e1a2 cf3c
000003c0: 757d c8bc d67c af3d 12fa 4b3d 9e24 5c3d
000003d0: 488d 06bd 15de e93d c4ed d73d 785a 943d
000003e0: 8672 95bd 130f c0bd 3e8a 44bd 59ff 54bd
000003f0: 1c67 e1bd d810 cd3c 7bee 1dbd 58b6 063d
0.10441125 0.066643745 0.026097823 0.090527646 0.07954816 0.11327253 0.060286995 -0.067389466
0.051317666 0.057193425 -0.11118339 -0.06707418 0.060937505 -0.09792872 0.07839426 -0.011935858
0.0485028 -0.05953979 -0.09139122 0.029517047 0.010056027 -0.042097654 -0.09387872 0.023444282
0.025085868 0.07497777 -0.051984515 0.008569286 -0.069751576 0.062421575 0.018986758 -0.094231084
0.027797785 -0.018673325 0.0720256 0.07590385 0.019212201 0.10974146 -0.0040048053 -0.00021867243
-0.03299972 -0.07305388 -0.033733208 0.034848437 0.04581976 -0.0047728154 0.063752756 0.09033766
0.03327327 -0.09641497 0.11086879 0.050381448 0.0570215 0.029659351 -0.08582623 0.09025729
0.036549967 0.072467096 0.08176273 0.07244156 0.04065289 0.013714777 -0.015911447 -0.104834355
-0.06813536 0.10671535 0.053746726 0.02831695 0.09478839 -0.05294125 0.008518203 -0.020677552
-0.0075726165 -0.0094106775 -0.048395824 0.07730326 -0.0654418 0.064235665 0.07624931 0.01607932
-0.057849552 -0.09724068 -0.082608074 -0.020217337 -0.10691649 -0.008931212 -0.039652746 0.006526283
-0.084274374 0.09071665 0.06463886 0.047478963 0.08070514 0.034581326 0.08452543 -0.012747669
-0.0764419 -0.028707266 0.022751458 0.11106294 0.06605661 -0.084716275 -0.07989616 -0.027131926
-0.033922732 -0.04945332 0.04114703 -0.06738654 0.022512536 -0.08747584 -0.0091607375 0.04318607
-0.011856991 -0.0623346 0.042486183 0.0229139 -0.059070893 0.020317484 -0.00983814 -0.10668428
-0.060305677 -0.09365602 -0.09792552 0.10711426 -0.09786343 0.09152636 0.06145196 -0.06622219
-0.11317844 -0.10725381 -0.026741762 0.07936347 -0.022809416 0.039537683 -0.01881567 0.0053225937
0.0062023075 -0.03700058 0.050670967 0.11056867 -0.100621164 0.082194276 -0.079558775 -0.028543793
-0.04859857 -0.034043908 -0.06555939 -0.057832275 -0.11354599 -0.016608939 -0.003645708 -0.025018763
-0.11431385 -0.06975039 -0.045731217 -0.107342765 0.08510693 -0.10010486 0.08085171 0.07096223
-0.012358942 0.07211236 -0.02306873 0.094366305 0.07364102 -0.052005887 0.055495456 0.097961545
0.09193958 -0.05442648 -0.06416431 -0.057691604 -0.053115025 0.071361236 -0.039040543 -0.09841169
0.00016686058 -0.01089417 0.113093756 -0.017992614 -0.001666775 0.10215632 -0.067126475 -0.113802105
0.07279145 -0.023067573 0.0059873792 -0.04262892 -0.02291511 -0.09685814 -0.031224161 -0.08017354
0.035219833 -0.027292868 0.03658083 -0.023246353 0.008692029 -0.030256 0.062349007 -0.015757497
0.00867408 -0.078810655 -0.0021634612 0.037836798 0.057768185 -0.06727227 0.05001466 0.02857338
-0.032383326 0.013023357 -0.007777971 -0.11121042 -0.042762168 0.076997235 0.028404813 0.06996213
-0.09828287 0.09026046 0.03868352 -0.07599948 0.019960692 -0.0375014 -0.07426629 -0.018266415
-0.025912063 0.097807005 -0.057623204 0.030306764 0.08913932 0.010683963 -0.03664501 -0.04689398
-0.07371086 0.020449918 0.10776304 0.030423203 -0.023617586 -0.10825414 -0.047066342 0.025346221
-0.024473885 0.085687324 0.049799033 0.05374586 -0.03284958 0.11419312 0.10543397 0.07243818
-0.07297234 -0.09377875 -0.0479834 -0.05200133 -0.11005995 0.025032446 -0.03855751 0.03288874

conv1.bias f4 [6]
00000000: 04ac 04bd 8e2e 453d b64f b63d c9b9 abbc
00000010: bd8e 80bd e733 46bd
-0.03239061 0.0481401 0.089019224 -0.020962613 -0.06277225 -0.04838934

conv2.weight f4 [16, 6, 5, 5]
00000000: bb17 5d3d 90e5 d63c dff0 41bb 98a4 9a3c
00000010: ce1c aa3c 9fe8 c73c 19ba 34bd 5f92 a4bd
00000020: 770a 8dbd eaed 75bd 73c0 733d c20b a13d
00000030: 78e6 753d 7883 61bd 83e9 963d c325 163d
00000040: 10e9 93bd 4a03 743d 8a0b 993d 8183 8cbc
00000050: 0082 453d 6124 523d 62f9 b3bc c7bf 36bd
00000060: 79b7 bc3c 1251 8ebd e953 aebc 56e7 91bd
00000070: ff24 7cbd 43cf ec3c e909 9fbc 9c30 7cbd
00000080: e526 803d 0ea0 1b3d 9f3b 9e3b 648d 23bd
00000090: cbb4 1dbd 6bd5 6d3c 6218 76bd 6201 413d
000000a0: f48a 103d 5181 a53c 4797 1dbd 1dd2 52bd
000000b0: ae9b 563d 1a6e 463d d275 c23c ad49 9ebd
000000c0: 3756 0f3d 1cb4 2d3d 8dfc 2cbc 61fc 473d
000000d0: b778 a03d 2ee6 003c 26c9 af3c 8ff2 11bc
000000e0: 5694 9c3d c500 5abc 410d 943d 36c6 8ebd
000000f0: 6394 9dbd f60b 943d 5ccb 48bb 5459 5a3d
00000100: 3482 a3bd cc6c 9d3d a4f7 91bc f631 19bd
00000110: 76d0 1f3d b8ff 98bd 35e4 943c cb51 d43c
00000120: 2a91 c33c 7be4 60bc f7f0 1e3b 0cf9 19bd
00000130: 3c49 1d3d 78fb 83bd 3cb1 483b 40a3 a3bd
00000140: d8dd 7dbd 1296 2b3d be8c a33c b3c8 3b3d
00000150: 743e 3a3d a02a 7bbd acb7 933c a495 343d
00000160: b3a8 55bc 5155 8b3d fca4 73bd 7ee5 333d
00000170: 4ec5 1fbd dbc3 813d 191d d8bc 602e 71bd
00000180: 481f 7cbc 22b7 25bd f68f 6c3c 28c6 0f3d
00000190: 697b 2fbd bb61 9e3c 1b28 2b3d 617e ff3c
000001a0: 80e8 6b3c fb55 d6bc c9af 373d 3921 f4bc
000001b0: 5cbe 52bd 5e02 2d3c 51bc 3ebd bc18 4bbd
000001c0: df15 6fbd 29c4 043d 8a31 13bd 5d8b 58bc
000001d0: 13d5 913d 8316 9b3d 377a 523d 4189 9bbd
000001e0: 985a 883d cd14 a83c 17cc 9fbd b104 37bd
000001f0: 286b 973d 1afe 15bc c4c7 2ebd d846 2d3d
00000200: 40a1 a03d 0f13 2abd 9b9c 34bd ce14 ffbc
00000210: 6837 1a3c 3258 943d ebab 03ba 5c4a 49bd
00000220: a885 4abc 0f39 bcb8 74d2 b2bc 54b2 a13d
00000230: 3e7f 4d3c ebce 0fbd 4cb9 8a3c b608 573d
00000240: 7358 17bd e7c4 1c3d 551f 51bd 5e88 4dbc
00000250: cac2 42bd 562e 96bd 71c5 7e3d 5cac 0d3d
00000260: 898a bd3c 7639 adbc b52a 413d 9ffa 803d
00000270: 484d 423d 3665 9a3d e738 02ba 4a76 efbc
00000280: e173 9abd bae2 9c3d e6c5 67bd bc76 6d3d
00000290: f0d4 5b3d 6a31 2b3d 6279 e73c 7cc3 493d
000002a0: c374 8abc 634d 83bd 9833 553d fff9 b43c
000002b0: 0602 633d 7d51 91bd f757 1a3d 1af6 5abd
000002c0: d962 173d cd74 a5bc 3f8a 523b 4093 4e3d
000002d0: 759f 80bd 3c14 73bd c209 31bd ec56 12bd
000002e0: b821 613d 99a3 dfbb ee3d 7c3d 62c3 a6bb
000002f0: 0342 12bd 71c9 62bc 86cf 313d b5aa 23bc
00000300: 0061 6b3c 8471 3fbc 247d f9bc 85ad 43bd
00000310: 6d5e 083d d8a2 2f3d fc3c 3b3d 6f91 a1bc
00000320: 0847 1abd d3b9 013d 6fd6 62bd 0e81 d7bc
00000330: a33e 633d 18b1 0abd fc3c 02bc f9b4 4f3d
00000340: d691 043d 4957 1bbd 553f df3b 084c 34bd
00000350: ba53 153d f585 a93c f18a f1bc 4bee 66bd
00000360: 989a 293d 3829 e83c be5a fbbc 6490 c53c
00000370: 5b24 84bd 804e 90bd 0f2a 8ebd 8ab3 23bd
00000380: 756c a23c dfa7 613d 1ef7 d63c ddf0 b8bc
00000390: d7de 0d3d ae2d 2ebd fc83 8f3d a18d 80bb
000003a0: 1fef fc3b e6e1 9a3d 4646 453c 4b8f 7b3c
000003b0: 5bdc 323c 11e8 88bd cb71 46bd 8b33 253d
000003c0: 73f1 6f3d 1f44 0c3d 705b 3f3d 76b9 703d
000003d0: 6d11 97bd 59d6 19bd a042 8abd d9cd 9c3d
000003e0: 281d 843d 094d 3d3d 172b 1b3c 57b3 9dbc
000003f0: bddd 393d e52d 90bc 0621 30bd d768 a6bd
0.05397771 0.02623251 -0.0029593033 0.018877313 0.020765688 0.024402915 -0.04412279 -0.080357306
-0.06886762 -0.060041346 0.059509706 0.07863571 0.060034245 -0.05505702 0.073687576 0.036657106
-0.072221875 0.05957345 0.07472904 -0.01715255 0.04821968 0.051304225 -0.0219695 -0.044616487
0.023036705 -0.06949057 -0.021280246 -0.07124202 -0.06155872 0.028907424 -0.019413905 -0.061569795
0.062574185 0.037994437 0.0048288847 -0.039929762 -0.038502496 0.014516215 -0.060081847 0.04712046
0.035288766 0.020203264 -0.038474347 -0.05146991 0.05239456 0.048444845 0.023737822 -0.07728896
0.03499433 0.042408094 -0.01055826 0.04882467 0.078355245 0.007867379 0.02145822 -0.008907928
0.0764548 -0.0133058475 0.072290905 -0.069713995 -0.07694318 0.07228844 -0.003063879 0.053307846
-0.07983819 0.07686767 -0.01781828 -0.037401162 0.039017163 -0.074706495 0.018175224 0.025917908
0.02387293 -0.013726349 0.0024252513 -0.037591025 0.03839992 -0.06444448 0.0030623218 -0.07990122
-0.061979145 0.041891165 0.019964572 0.0458457 0.045469716 -0.061319947 0.018031918 0.04408802
-0.013040709 0.06803382 -0.059483513 0.043920033 -0.039006524 0.063361846 -0.026381062 -0.058882117
-0.015388317 -0.040457852 0.01443862 0.035101086 -0.042842302 0.01933371 0.041786294 0.031188192
0.014398694 -0.026164046 0.044845376 -0.029800998 -0.051451072 0.010559646 -0.04656631 -0.049584135
-0.058370467 0.032413635 -0.035935916 -0.013216821 0.07120719 0.07572653 0.051386084 -0.075945385
0.066579044 0.020517731 -0.07802599 -0.04468221 0.07393485 -0.009154821 -0.04267098 0.04230389
0.07843256 -0.041522082 -0.044094663 -0.03113785 0.009412624 0.072433844 -0.0005022871 -0.04914318
-0.012360968 -8.9751666e-05 -0.021828867 0.078953415 0.012542544 -0.03510944 0.01693406 0.05249854
-0.036949586 0.03827372 -0.05105527 -0.0125447195 -0.047549047 -0.07333057 0.062200014 0.034588203
0.023137348 -0.021145564 0.04715987 0.06297802 0.047436982 0.07538836 -0.00049675856 -0.02923121
-0.075416334 0.07660432 -0.056585215 0.057974562 0.05366987 0.04179517 0.028256122 0.049258694
-0.01690138 -0.06411245 0.052051157 0.022091864 0.05542185 -0.07095621 0.037681546 -0.053457357
0.036959503 -0.020197297 0.0032125858 0.050433397 -0.06280414 -0.05934547 -0.043222196 -0.035727426
0.054963797 -0.0068249223 0.0615825 -0.0050892094 -0.035707485 -0.013841973 0.0434108 -0.00998943
0.014366388 -0.011684779 -0.03045518 -0.047772903 0.033293176 0.04287991 0.045712456 -0.019722668
-0.037665397 0.031671356 -0.05538028 -0.026306655 0.055479657 -0.033860296 -0.00794911 0.0507097
0.032365642 -0.03792504 0.0068129697 -0.04401782 0.0364568 0.020693759 -0.029485198 -0.056379598
0.041407198 0.028339967 -0.030682918 0.024116702 -0.06452247 -0.07046223 -0.06941616 -0.039966144
0.019827107 0.055091735 0.026240882 -0.02257579 0.034636345 -0.042524032 0.07007596 -0.0039231335
0.007718935 0.07562618 0.01204068 0.015353988 0.010916795 -0.06684888 -0.048448365 0.04033236
0.058579873 0.034244653 0.04671806 0.05877062 -0.073763706 -0.037557933 -0.06750989 0.0765645
0.064508736 0.046216045 0.009470723 -0.019250555 0.04537748 -0.01760001 -0.043000244 -0.08125465

conv2.bias f4 [16]
00000000: ac7f 6cbd 04cf 483d e404 cd3c 2d62 8bbd
00000010: e503 2a3d 99db 783d c9f7 733b 73f1 24bc
00000020: c6d4 86bd aff9 803d f515 643b 3e4a 03bd
00000030: 0424 79bd 00c3 203d fcf0 a3bd 3f92 25bd
-0.057738945 0.04902555 0.025026746 -0.06805835 0.04150762 0.0607563 0.003722655 -0.010067332
-0.06583552 0.06297623 0.0034803126 -0.032053225 -0.060825363 0.039248466 -0.080049485 -0.040422674

fc1.weight f4 [120, 400]
00000000: d37e 3e3d 3308 0d3b 1ad4 773b 4397 903c
00000010: eae6 d23c add8 5a3c 6ffa e4bc 332c a3bc
00000020: 531d 29bd 93e6 57bc a7cb 7c3c 4758 b0bc
00000030: db04 18bd 2397 7bbc a0e1 4c3c cdae bd3c
00000040: 0a85 443d 0800 0f3d 9afc 533b 27fb 153c
00000050: 828b a6bc 4d23 a33c 1921 1abd b6dd 0bbd
00000060: 6720 6eba a387 463d ad9b fdbb 27eb c63c
00000070: 6ac7 db3c e3b6 44bd 1d0d ad3c 4d69 9fbb
00000080: ecd2 48bd b8d3 453d 8d2b 433d cdf9 a23b
00000090: 126d 423d 13f5 22bd 7a2b df3c 3fc0 e4bc
000000a0: 45db 2d3d fe13 41bd 67c4 b53c f303 933b
000000b0: c082 7bbb 87b5 113d e795 8fbc b014 453d
000000c0: 6aa7 bdbc be15 ddbc 458d 2d3d 522a 173d
000000d0: 4df2 573c ca6f ac3c cda0 743c 0865 babc
000000e0: e398 f93c 3303 273c 0f48 483d daa8 b03b
000000f0: 3a9a 42bd 007c a73c 6d6a fa3c 1a9d 393c
00000100: 855a 8dbc 1a6a 2a3d 1a5b 623b 0a63 1d3d
00000110: e781 ef3b 5351 233d ba40 44bc fbd7 c1bc
00000120: d036 153d cd51 c0ba 3382 58ba 5a53 4abd
00000130: 4d50 313c f74f d83c 3044 c23c d4dd e8bc
00000140: da58 393c e8a3 19bd cb87 44bd 8dba 2a3c
00000150: 0d58 d73c ff5c 0fbd a727 f23b d0da 3e3d
00000160: 8879 90bc 9a3e f53b 67a8 063c a3da 28bc
00000170: c01e 253c 8b8c 153d f0fa 6ebc 0dab 94bb
00000180: e097 273c e30c 953c f7b4 39bc 220f 373d
00000190: 03e4 13bc fb3d 83bc 5ad4 eabb 00b8 0fba
000001a0: d7bc 8b3c 5fe0 f0bc 9d1c 44bd 286a 28bd
000001b0: 7797 f7bc 8d91 81bb d9d5 09bd 0db8 8b3c
000001c0: 1d1b e23c 58e6 063d f568 24bd 50c5 3e3d
000001d0: 0ac3 493d b308 f4bc 4303 cc3c 5b39 213d
000001e0: c822 26bd 6040 343c 3de1 0fbd 0c89 00bd
000001f0: 1874 2d3d a71d 89bb 00ca 153a ab2d 323d
00000200: bb78 2e3d 9a2e 883b 6f91 3bbd bb77 febc
00000210: 0045 bd3c 40c5 a13c e0e3 173c febb 18bd
00000220: 5a2b ce3c 7210 2d3d eda3 363c 55a7 113d
00000230: b90f e1bc e0f0 0c3d 8756 61bc 0d3c fd3c
00000240: aabf ef3c 8a4c 3b3d 65d6 a2bc 13fe c8bc
00000250: d055 de3c ed76 423d da7f 763c e056 ddbb
00000260: 27e0 1abb 5176 f8bc 5a32 21bd 10b7 0fbd
00000270: 833f a23c 7082 c9bc 3f6f 0a3d fee0 27bd
00000280: 4988 43bd 7300 17bc 50d2 253d 40e0 01bb
00000290: 7d16 02bd c3fa 8f3c 025a 9ebc 9535 263d
000002a0: 907f 9fbc cd04 303b d3ef c63c 80a3 343d
000002b0: a946 23bd 134e d13c 68cf 49bd a7d0 f63b
000002c0: 3a96 ccbb e00c 88bc e0ab 453d e7c1 143d
000002d0: 9257 2d3d 6021 f43c 178a 813c 0754 aebc
000002e0: ea68 1d3d 8811 4bbd 6726 dcba e8e5 84bc
000002f0: ed46 623c 5a99 48bc 3a1f 2e3c 8ea1 1dbd
00000300: 519a 4abd 271c b6bc 2c25 ddbc 89bf cdbc
00000310: 3bfb 0a3d adfe ccbc 1aba 17bb ca71 24bc
00000320: 0059 773c 5d1d 0cbd 4d87 503b a29e 45bd
00000330: 0a77 eb3c 270a fa3c 3a14 193d 4055 20bb
00000340: a7d1 123c 70c1 263d 6db8 9b3c a76d 063c
00000350: f7d9 b13c def0 41bd b36b f03c fbb7 2c3d
00000360: 4035 5fbc a0ec 0e3d e579 a9bc 2de9 78bc
00000370: 9a42 ebbb bb7c b2bc ba89 3d3d f5be 033d
00000380: 7038 8d3c 95f7 1b3d f7fe 14bc 87ba 3cbc
00000390: 7aec 85bb 0d6e 7b3c 885b f0bc 40a0 243c
000003a0: 1330 9abc ab8a 053d 001b 5a3c 5bbe 05bd
000003b0: daad 0c3c 53a8 ecbb 3355 bbbc b015 243d
000003c0: 7b3e 18bd 3ff0 093d 60e6 c13c 93b9 88bc
000003d0: 272a 643c 4d7b 343c 60eb 023c 57ad 243d
000003e0: 4039 063c a017 363c 9b30 bebc b0af 40bc
000003f0: 2712 9d3b 4756 8d3c f3e2 88bc 03e9 c73c
0.046507668 0.002151978 0.0037815631 0.017650252 0.025744874 0.013357324 -0.027951447 -0.019918537
-0.04128773 -0.013177532 0.015429414 -0.021526469 -0.037114006 -0.015355858 0.012504965 0.02315464
0.04797844 0.03491214 0.0032346607 0.009154118 -0.020330194 0.019914294 -0.03762922 -0.034146987
-0.0009083808 0.048469197 -0.0077395053 0.024282051 0.026828486 -0.048025977 0.021124417 -0.0048648478
-0.049029276 0.048297614 0.047648955 0.004973626 0.0474673 -0.039784502 0.02724241 -0.027923701
0.04244544 -0.047138207 0.022188378 0.004486555 -0.0038377494 0.03557351 -0.017527534 0.048115432
-0.023151118 -0.026987907 0.042371053 0.036905594 0.013180328 0.021049399 0.014930916 -0.022753254
0.03046841 0.010193634 0.048896845 0.0053912224 -0.047510363 0.02044487 0.030568326 0.01132896
-0.017255077 0.041605093 0.0034539164 0.03842453 0.0073091867 0.03987248 -0.011978323 -0.023662558
0.036429226 -0.0014672816 -0.0008259147 -0.049395896 0.010822368 0.026405318 0.023714155 -0.028426088
0.011312688 -0.03750983 -0.047981065 0.010420454 0.026287103 -0.035000797 0.007389981 0.046595395
-0.017636076 0.0074842693 0.008218861 -0.010306033 0.010078132 0.036510985 -0.014586195 -0.0045369924
0.010229081 0.018194621 -0.011334649 0.044692166 -0.00902653 -0.016020766 -0.0071664276 -0.0005482435
0.01705782 -0.029403863 -0.04787885 -0.041116863 -0.030223591 -0.0039541186 -0.033651207 0.017055536
0.02760082 0.032934517 -0.040139157 0.04657489 0.04925827 -0.029789304 0.024903899 0.03936134
-0.040560514 0.011001676 -0.035126913 -0.031380698 0.042347044 -0.004184443 0.0005713999 0.043500584
0.042595606 0.004155946 -0.045792993 -0.031062951 0.02310419 0.019747376 0.009270638 -0.03728866
0.025167156 0.04225201 0.011147481 0.03555997 -0.027473317 0.034409404 -0.01375354 0.030912424
0.029266197 0.04572729 -0.019877622 -0.024535215 0.027140528 0.047476698 0.015045131 -0.006754741
-0.002363214 -0.030329855 -0.03935466 -0.03508669 0.019805675 -0.02459833 0.0337975 -0.040986054
-0.047737394 -0.009216416 0.040483773 -0.0019817501 -0.031759728 0.017575627 -0.019330028 0.040578444
-0.019470006 0.002685833 0.024284279 0.04410124 -0.03986231 0.025549924 -0.049270064 0.0075321975
-0.0062434943 -0.016607702 0.048259616 0.036317732 0.04231984 0.02980107 0.015812917 -0.021280302
0.038430132 -0.049577266 -0.0016796113 -0.01622291 0.013810855 -0.012243593 0.010627562 -0.03848415
-0.049463574 -0.022230221 -0.026995264 -0.025115745 0.033931 -0.025023783 -0.0023151697 -0.010036895
0.015096903 -0.03420769 0.0031818927 -0.048246987 0.028743286 0.03052242 0.037372805 -0.0024464875
0.008961118 0.04071182 0.01900884 0.008204854 0.021710379 -0.04734885 0.02934823 0.042167645
-0.013623536 0.034893632 -0.020688007 -0.015192312 -0.0071795704 -0.021787992 0.046273924 0.032164533
0.017238826 0.03807791 -0.0090939915 -0.011519081 -0.004087028 0.015346062 -0.02934052 0.010047972
-0.018821752 0.032602947 0.013312101 -0.03265224 0.008586371 -0.0072222142 -0.022867775 0.040059745
-0.03716896 0.033676382 0.023669422 -0.016690051 0.0139260655 0.011015725 0.007990688 0.040204372
0.00819236 0.011114031 -0.023216536 -0.011760637 0.0047934237 0.017253054 -0.01670978 0.0244031

fc1.bias f4 [120]
00000000: 489e 073d 0d69 a53c d056 c43c 289b 363d
00000010: 63c3 013d 3006 c2bc ff7b 47bd 1c11 16bd
00000020: 8f90 fabc 91a0 d6bc 93b5 0abd ba28 413c
00000030: df68 9ebc bbb4 103d 5b75 303d 80a8 07bb
00000040: 4290 2b3d 824f 073d f017 ad3c 40a6 8d3c
00000050: a52b 98bc f34b ba3b 08d6 c4bc a01c e33c
00000060: eac2 f6bc f3a1 423d e30a 803c 079c a8bc
00000070: e7a8 5bbb 0b81 04bd c731 903c 0cb7 24bd
00000080: 5590 8abc 35a9 b7bc e716 f2bb 677a c63b
00000090: 3f9c 08bd 3d40 09bc 8df4 463d 9762 c13c
000000a0: 38af 44bd 0040 39bc 9a6e bd3b 50b3 59bc
000000b0: 1acb fabc 08aa f8bc 3367 6b3b 1542 a0bc
000000c0: 4dba d8ba 0d4f bf3b 9064 ed3c cd8c b838
000000d0: c391 40bd d2a3 483d f649 42bd 9a05 6fbb
000000e0: 0b59 2d3d 6085 eb3c 00d9 ec3c e5ef 093d
000000f0: 0d95 27bd e388 2cbc e33e 24bc 18d6 3bbd
00000100: d0d4 d23c ae10 40bd 5364 58bc 2a6a 35bd
00000110: 30a8 9a3c 3811 203d 9ad4 973a e2d9 3d3d
00000120: 8be3 0c3d 9394 11bd d204 09bd c059 9bbc
00000130: e0e9 fc3c f340 99bb 9a29 e538 1406 10bd
00000140: 00b6 073b 63fc 30bc 7af1 ddbb 07e5 b4bc
00000150: e024 5d3c 1ae4 bcba 1d54 e23c a5c1 443d
00000160: baff 023d df94 273d d2d7 183d 2665 45bd
00000170: 3a3e 08bc c54b eebc 071b 423d f3f0 143d
00000180: 271e 8abc b09e 343d 4d73 1fbc f202 403d
00000190: 40c7 e13b f050 843c b868 133d ddc3 1abd
000001a0: 2da6 c2bb 631b f2bc dd3f b53c f734 473d
000001b0: 9b74 d9bc 0094 723c dfcb 9dbc db6b fdbc
000001c0: 6d67 833c 602d 633c 08b1 bcbc adcd 513c
000001d0: 2a96 02bd f31b a3bb 52c2 12bd 4327 b73c
0.033109933 0.020191694 0.023967177 0.044581562 0.031680476 -0.023684591 -0.048702236 -0.03663741
-0.030586509 -0.02619961 -0.03386457 0.011789495 -0.019337116 0.035328608 0.04308067 -0.00206998
0.04188562 0.03303481 0.021129578 0.017291188 -0.018575499 0.0056853234 -0.02402784 0.02772361
-0.03012224 0.047517728 0.015630191 -0.020582212 -0.0033517422 -0.032349627 0.01760186 -0.04021363
-0.016914526 -0.022419551 -0.007387984 0.006057072 -0.033352133 -0.008377132 0.048573066 0.023606582
-0.048018664 -0.011306763 0.005781007 -0.01328738 -0.030614424 -0.030354515 0.0035919666 -0.01956276
-0.0016535014 0.005838281 0.028978616 8.80003e-05 -0.04701401 0.048984356 -0.047433816 -0.0036471845
0.042321246 0.028750122 0.028912067 0.033676047 -0.04091363 -0.010530683 -0.010024759 -0.045858473
0.025736243 -0.046890907 -0.013207513 -0.0442907 0.018879026 0.03907892 0.0011583746 0.046350367
0.03439669 -0.035542082 -0.033451863 -0.018963695 0.030873239 -0.004676932 0.0001092732 -0.035162047
0.0020707846 -0.010802361 -0.006773171 -0.022081865 0.013497561 -0.0014411241 0.027627999 0.048036236
0.03198216 0.04091346 0.037315197 -0.048192166 -0.008315617 -0.029088864 0.047389057 0.0363626
-0.01686008 0.04409665 -0.00973208 0.04687781 0.0068902075 0.016151875 0.03598854 -0.037784446
-0.00594022 -0.029554075 0.022125179 0.048634496 -0.02654486 0.014805794 -0.019262252 -0.030935219
0.016040528 0.013865799 -0.023033634 0.012805385 -0.03188149 -0.004977697 -0.03582985 0.022357589

fc2.weight f4 [84, 120]
00000000: d6cf 643d 27d2 143d 7083 3d3c aaa6 8e3d
00000010: 183b efbb 788f 2fbd ca95 1bbd 0f92 a03d
00000020: 1e09 223d 1c60 98bd 48e8 e5bc 0a0a 09bd
00000030: 2ad4 7b3d 8626 863d bd1c 6bbd 2757 acbd
00000040: 0e04 45bd 57bd 33bd 78b0 5e3d 2944 edbc
00000050: e464 4dbd 1804 a6bd 46fc 463d ba49 263c
00000060: b101 05bd 7b45 963d dcc8 903d 6737 b63d
00000070: b9d1 84bd 8b3e 1dbd d68e 393c 0582 fbbc
00000080: f815 203d f82c a1bd 4d7f a2bb 4983 a6bb
00000090: 28b0 73bd 531a 02bc 9dcd 98bb e490 03bd
000000a0: f3dc a63c feca 943d 849e 4fbd 224c 3bbc
000000b0: 0f6e 34bd f880 aa3c 4cc3 103d 5f3c 8d3d
000000c0: d813 9b3b 75d3 4d3b c14a 26bd ee1b 253c
000000d0: b579 0bbd 42cb 9c3d f894 823b ab4b 4dbd
000000e0: 3077 8d3c 4292 ac3d d6b3 c93c 8437 58bc
000000f0: c9a1 7e3d 7f06 9dbd 6a70 b73d 79de 39bd
00000100: 1113 533d 92c5 80bd d2c0 e5ba 9d43 d5bb
00000110: 52c0 463c 0779 27bd 4404 763d f381 3fbd
00000120: 031b 03bd ef59 d53c e33a 76bd b6f9 9bbd
00000130: 5c2b 92bd 57bb ddbc 3631 18bd 5f32 113c
00000140: d9a5 54bc 6cd4 2abd f6c2 d53a 7bc8 743d
00000150: 8c0c 39bc 4ce8 323d 87d6 543c f634 513d
00000160: 9c0d b1bd e5fa 953c dd61 193a f9a7 12bd
00000170: 3de5 3bbd 0a79 89bd 725d 2a3d 75ec b83d
00000180: 5c83 dabc dbe2 793d 4695 683b d7c2 973d
00000190: e231 283d fc4b 1f3d 0e78 fabb a451 4f3d
000001a0: f1bf 1cbd 2c33 b23b 2457 cb3c 0ae1 88bd
000001b0: 3da2 0dbd 9a02 7dbd c4f7 6c3d ae00 9d3c
000001c0: 640f 2f3a e71c ac3c 886d b33d d89e 58bd
000001d0: a52a 18bc 6844 b73d e689 56bd 2aeb b33d
000001e0: 93a7 673d da5f adbd 8e28 98bd 7db9 2ebb
000001f0: 8030 8fbd 1865 883d 081b 51bd c147 9f3b
00000200: 7ed7 19bd 0bb8 613c e5e2 b8bc ce43 a5bd
00000210: 6333 b9bd ff13 c7bc 0abc 33bd ac03 6b3b
00000220: 1be4 43bc 970b 5dbb bb2d c1bc b0a1 d2bc
00000230: 02c7 d0bc 80d8 9d3d 790c 8abd ecb6 c33b
00000240: 9690 8dbd 8291 25bc e517 3bbc 3132 753d
00000250: bec2 1cbc d374 893c 9107 dbbc def2 9fbd
00000260: 74dc a13d 800b 9a3d 83eb 98bd 0f7a 9f3d
00000270: 4eda aabd 33bb 84bb 5df9 78bd b015 1dbd
00000280: 29b6 17bd 72c4 f9bb 572a 8f3d 2836 2ebd
00000290: f594 063d 64bd 0ebd 9875 74bd 1da3 f53c
000002a0: 4660 a1bd 9342 86bd 61e9 02bd 1e44 6dbd
000002b0: 755e 053d 932a 93bd b455 083c dbc7 89bd
000002c0: 1b0e 4fbd ab0d 9a3c d69c 42bd 3a26 223d
000002d0: 2636 a73d 7fd3 a33d c685 4a3c 9f12 b03d
000002e0: 2318 e6bc 54da 71bd 2efe 233d d1e4 9bbd
000002f0: 7cc8 a63d 6907 71bc b7e8 6bbd 8ad6 ae3c
00000300: cb77 0a3d 0e38 00bc b336 0dbd a20c 04bd
00000310: 4e72 8a3d c270 8d3d 687d 143a 6cfe 1c3d
00000320: f076 0e3d ae87 9b3d 5fc6 91bd a081 93bd
00000330: ac4d 3bbd c637 a53b b655 633b 35d5 a3bd
00000340: b342 f13c 449a 313c 2848 943d 4fa9 473d
00000350: 25c4 50bd 19ec 5c3c 5fe2 803c e165 17bd
00000360: c37a 8ebc 93c0 513d 675c 62bd 419b 733d
00000370: e8b3 b4bd 0670 623d e4ec 573a 1043 7a3c
00000380: 1918 09bd 5489 9bbd a3b1 5f3d 5389 6b3d
00000390: bfa9 17bc cd97 583d 4a77 b9bd 346d 9cbc
000003a0: 0271 47bd bfd4 9d3d 301b 723c d7c0 fc3b
000003b0: db31 cdbc 50ee c1bc f050 34bd 7c94 0bbc
000003c0: abab e2bc eea9 fabc 5d5e d53b 44a3 c13c
000003d0: 227b 253d a2e9 a1bd 0703 5ebd 46fc 183d
000003e0: 984d a6bc 8ee5 74bd 7b9b 6b3d 14ff bb3c
000003f0: ce63 5cb8 d889 143d 12ce 0d3d dd2c f93c
0.05586227 0.03633323 0.011566982 0.069653824 -0.0073007457 -0.04286143 -0.037984647 0.078403585
0.039559476 -0.074402064 -0.028064862 -0.03345684 0.061481632 0.065503165 -0.057400454 -0.084150605
-0.04809957 -0.04388174 0.054367512 -0.028963165 -0.050145045 -0.081062496 0.04858043 0.010149414
-0.032472316 0.07337471 0.07069561 0.08897286 -0.06485314 -0.038389724 0.011325559 -0.030701647
0.03908345 -0.07869905 -0.004959023 -0.0050815684 -0.059494168 -0.0079408465 -0.004663183 -0.0321206
0.020369029 0.0726528 -0.05068828 -0.011431726 -0.044050273 0.02081345 0.0353425 0.068962805
0.00473259 0.0031406556 -0.040598635 0.01007746 -0.034051616 0.07655956 0.0039850436 -0.05012099
0.017268747 0.08426334 0.024621885 -0.01319683 0.06216601 -0.07667255 0.08956988 -0.045378182
0.051531855 -0.062876835 -0.0017528778 -0.0065083043 0.012130814 -0.040886905 0.06006266 -0.04675479
-0.032008182 0.02604386 -0.060114753 -0.07615988 -0.071371764 -0.02706687 -0.037156306 0.008862107
-0.012978994 -0.041706488 0.0016308713 0.059761506 -0.011294495 0.043678567 0.0129906 0.051075898
-0.08645174 0.018308112 0.00058510696 -0.035804722 -0.045872916 -0.067125395 0.041593023 0.090294756
-0.026673965 0.06100736 0.0035489365 0.074102096 0.041063197 0.038890824 -0.007643706 0.050614968
-0.038268987 0.005438229 0.024821825 -0.06683548 -0.03457855 -0.06177006 0.057853475 0.019165363
0.00066780136 0.021009875 0.08761126 -0.05288586 -0.009287511 0.08948594 -0.052377604 0.08785088
0.056556296 -0.08465548 -0.0742961 -0.0026660853 -0.069916725 0.06659907 -0.05105117 0.0048608487
-0.037559025 0.013776789 -0.02256913 -0.08069573 -0.09043004 -0.024301527 -0.0438805 0.0035860343
-0.01195624 -0.0033728832 -0.023581376 -0.025711864 -0.02548552 0.0770731 -0.0674066 0.0059727337
-0.06912343 -0.010105493 -0.011419271 0.05986232 -0.0095679145 0.016779339 -0.026737006 -0.07809995
0.07903376 0.07521725 -0.07466795 0.07786953 -0.083424196 -0.004050636 -0.060784686 -0.03835076
-0.037038956 -0.007622295 0.069904976 -0.042532116 0.0328569 -0.034848586 -0.05968246 0.029985005
-0.07879691 -0.06555667 -0.03196085 -0.05792629 0.032560784 -0.07185855 0.0083212145 -0.067275725
-0.05055056 0.018805346 -0.04751285 0.039587237 0.08164625 0.07999324 0.012360996 0.08597302
-0.028087681 -0.059046105 0.040037327 -0.07612003 0.08143708 -0.014711239 -0.05759498 0.021342535
0.03380565 -0.0078258645 -0.034475993 -0.03223861 0.06760083 0.069062725 0.0005664439 0.038328573
0.034781396 0.07594238 -0.071179144 -0.072024584 -0.04572837 0.005042049 0.003468854 -0.079996504
0.02945075 0.010840002 0.07240325 0.04874545 -0.050968308 0.013484024 0.015732942 -0.036962394
-0.017392522 0.051209044 -0.055263903 0.059474234 -0.08823377 0.055282615 0.00082368986 0.015274778
-0.033470247 -0.07594553 0.054612767 0.05750401 -0.009256779 0.052879144 -0.09055956 -0.01909504
-0.048691757 0.07706594 0.01477699 0.007713418 -0.025048187 -0.023673207 -0.0440225 -0.008519288
-0.027669748 -0.030598607 0.006511493 0.023637421 0.04040063 -0.0790589 -0.054202106 0.03734996
-0.020300671 -0.059789233 0.057521325 0.02294878 -5.2545038e-05 0.03626427 0.034620352 0.0304169

fc2.bias f4 [84]
00000000: 921b 69bd 1aa8 5a3c 6048 56bc ae2d 693c
00000010: 496c 1cbd 7e54 e0bc 5774 eabc 06d7 c8bc
00000020: 8690 e63c b218 83bc 4ae7 263b bf85 8e3d
00000030: dd28 1b3d 3500 943d 4e04 003d cd19 60bd
00000040: f4c9 123d 7787 473d b408 6f3d d940 1ebc
00000050: 2ace 8abd 6bbb 0b3d 6ded 37bb 6c32 923d
00000060: 2e08 6fbc 73c5 473d a1db adbd c90a bcbc
00000070: 7e4b 763d bc1f dbbb e3af e8bc 3517 103d
00000080: 668f 7abc 32b7 afbd 5e7c a7bd db36 9abd
00000090: daf4 ebbb 89f8 b4bd cd9c a1bd babf 863d
000000a0: df08 71bc 8394 a0bd 62d4 20bd 8d86 8b3d
000000b0: eaac 01bd e9f9 543d 5743 a93d 756b 743d
000000c0: 1767 7c3d fdfe d43c 1622 81bd 862c 19bd
000000d0: 2355 b3bd 380c 823d 1c05 8bbd 1ce4 403c
000000e0: dfb7 013d df0a b6bd 351a 053d dfdb 243d
000000f0: 98e9 b8bc e1dd 2b3d 77bc b8bb 369d 633d
00000100: 122e 953d b9a4 42bd 6a07 093d 8a29 9b3d
00000110: 6adb 84bd e772 b23d 3393 4c3d db60 943c
00000120: b520 473d 1b2e ad3d 4133 443b 9883 c7bc
00000130: dde2 0a3d 19f5 99bd 4120 aa3d 207e 8a3d
00000140: 9e6f 0f3d c16b 86bc 437f efbc 417a eb3b
-0.05691106 0.013345743 -0.013078779 0.014232082 -0.038189206 -0.027384039 -0.028619928 -0.024516594
0.028145086 -0.016002987 0.002546745 0.06959104 0.037880767 0.07226602 0.031254105 -0.054712106
0.03583713 0.048713174 0.05835791 -0.009659016 -0.06777604 0.034114283 -0.00280651 0.071385235
-0.0145893525 0.048772287 -0.084891565 -0.022954362 0.06013059 -0.0066871326 -0.028404182 0.035178382
-0.015292978 -0.085798636 -0.08178018 -0.07529994 -0.0072008194 -0.08836467 -0.078912355 0.06579538
-0.014711588 -0.07840826 -0.039265044 0.06812773 -0.031659044 0.051996145 0.08264797 0.05967279
0.06162175 0.026000494 -0.063053295 -0.037395976 -0.08756473 0.06349987 -0.06788084 0.0117731355
0.031669494 -0.08888792 0.032495696 0.040248748 -0.022572324 0.041959647 -0.005637701 0.05556985
0.07284178 -0.047520373 0.033454336 0.07576282 -0.064871624 0.08713322 0.049945068 0.01811259
0.048615176 0.084560595 0.0029937776 -0.024354741 0.03390776 -0.07517452 0.08306933 0.06762338
0.035018556 -0.016408803 -0.029235488 0.0071862047

fc3.weight f4 [10, 84]
00000000: 1d1b 983d 0886 ba3c f013 c73d e19f cc3d
00000010: 6d25 733d 699d 4abb e1f4 8cbc 2092 bf3d
00000020: 47e7 da3d 3aa2 c6bb 143a 903d 702d c0bd
00000030: 61a4 5c3d 6501 be3c 9685 faba 48fa be3d
00000040: 146d b43d ce36 d63d a6cb 57bd ec83 603d
00000050: 6dbb 20bd ff8a 013d 3afe d23d 66f9 debd
00000060: cbc8 7f3d ac90 d2bd 2784 c9bd b4f5 ad3d
00000070: 2fda 013d ac5a 253c 6850 a6bd 69fb 573d
00000080: 6528 52bc 6c18 32bd ea6f 38bc 6c9e 0fbd
00000090: 7117 a9bd 8ce1 0a3d 4a1a dc3d 5526 c83d
000000a0: 2e2d 7a3d a8f7 72bc 3676 08bd 1cdb eebb
000000b0: c6e2 d4bc 4364 45bd 8dbb 97bd 14f0 56ba
000000c0: 620c 1dbc d825 a23a 9389 9bbd 2e98 cd3d
000000d0: 77f2 383c 1643 c03d 7e11 92bb 0120 14bd
000000e0: 0e46 b2bd 987e 5a3d 0dc5 abbd d71b a93c
000000f0: a6d5 d63d a3c0 5d3d 1c12 a9bd 93b7 87bc
00000100: 0de2 c73d 3776 7a3d 18ee 94bd 3241 0ab9
00000110: b154 8a3d 2df2 89bc 19d3 94ba e5f6 71bb
00000120: 8f6d b33d 4546 19bd 3544 803d 638d 953d
00000130: a150 6bbd bd27 c83d b2a1 573d 0a40 e0bc
00000140: c44a 54bd 565c cebd 81e9 56bd 3f74 013d
00000150: 5968 223d eec6 d23c bdc2 90bd 6b3d 64bd
00000160: 1535 b43d 9000 c8bd 51da 313d 9dc6 c4bd
00000170: 5b1d 39bd 5580 ee3c 32f4 b6bd 4af8 453c
00000180: cfe3 dd3d 6a7a 05bd 0db9 efbc 516a 06bd
00000190: e537 ab3d c767 1c3d c541 8dbd adf6 cf3d
000001a0: 9a92 8bbc 3465 8c3d b420 8bbd 342f 70bd
000001b0: 5eef 6ebd 7419 3abd a4fc 03bd 6977 c6bd
000001c0: 980b 843d e52d c03d c15e 123d aaa2 b43d
000001d0: 2490 dc3d 7258 5a3d e0a6 31bd bd63 99bc
000001e0: 846d cfbd f5a4 b4bd 3c87 f63b d62b 86bd
000001f0: f5d0 b3bc cbdd 02bc 51b3 713d b4c7 ffbc
00000200: 08eb c93d 17d6 733d dc96 d0bd 7851 313b
00000210: ee2d 08bd 4a81 bdbc a3e3 f1bc 3dd1 983d
00000220: a104 3a3d d7be 1a3c 4020 a3bc bc08 a43d
00000230: 2613 87bc ede3 0c3b 8bbf 8abd ad2d 553d
00000240: 8c59 41bc 1d81 993b 77cb 353d 3858 d5bd
00000250: 7cfe bf3d 2a52 2d3d d9c6 b9bd db06 453d
00000260: 4146 a8bd 238b d73d 892a 813d ba25 8b3c
00000270: c35b d2bd 35ee babd c6e4 0b3d 1231 a6bc
00000280: 51c9 50bd e53e 91bd 0d5c 80bd 6fc5 373d
00000290: 58d2 d23d aa4d af3d 59f9 bd3d 55e4 b9bc
000002a0: 3095 123b f72f 973d df39 90bd 326a 3e3d
000002b0: 9f93 913d 214d 80bd a19a 9f3d 6afb 6f3d
000002c0: b70b 963d 3982 9c3d 0155 a33d 07b4 f9bc
000002d0: 5d27 2dbd 0a57 90bd d670 a63d e5f3 c2bd
000002e0: afc7 873c 0cc2 a0bd 09e3 09bd c4f9 84bd
000002f0: 0c68 8a3d ded5 80bd 920a c2bd 780d f1bc
00000300: 24ed 86bd 3ac1 bebd c63a 4f3d 2c86 71bd
00000310: 27e9 5a3d d47e ca3d 8596 6e3d b431 a9bd
00000320: b7ff 063d 9e71 823d 9021 dc3d bd0a 433d
00000330: 58f4 42bc 89ac bbbd 14f9 c53d ec0a cebb
00000340: 7460 963d 574d afbd 0729 a53b d3b8 febc
00000350: e0ba 75bd ad80 a53d 6d31 0c3c e5a7 8fbd
00000360: 552a 1e3d 6e29 84bc 2c17 75bd 1e24 a0bc
00000370: 9173 b9bd 5334 a7bd 9575 953d 7a4d 3d3d
00000380: a069 91bd dfa0 8e3d 3e3a e1bb 9334 90bd
00000390: 16e0 8dbd 6b8c 07bd 247d a43d c434 8cbd
000003a0: 4ae7 d23d cd19 c73d db8d 87bd a9e7 a5bd
000003b0: 5432 efbc d5b9 ee3c d4c7 d0bd 6769 9cbb
000003c0: 5966 dd3d 8924 90bb 033e 9cbd 2f32 74bd
000003d0: 3985 c9bd 67f7 e8bc 9ae1 613d f76d 22bc
000003e0: 292e 4f3d 5d05 8c3d 582b 3fbd 9ec8 c9bd
000003f0: c25a 9bbd fecd db3c 3b40 c8bd eb99 9fbc
0.074270464 0.02276899 0.097206 0.09991432 0.059361864 -0.0030916578 -0.017206611 0.09354043
0.10688644 -0.0060618194 0.070423275 -0.093836665 0.0538677 0.023194024 -0.0019113298 0.09325081
0.088098675 0.10459672 -0.05268445 0.05481331 -0.039241243 0.031626698 0.10302396 -0.10887413
0.06244735 -0.102815 -0.09839659 0.0849413 0.031702217 0.010092419 -0.08120805 0.052729998
-0.012827014 -0.04348032 -0.011257151 -0.035063192 -0.08256424 0.033906505 0.10747202 0.09772936
0.061078243 -0.014829554 -0.03331586 -0.0072893035 -0.02598704 -0.04819132 -0.07408819 -0.00081992266
-0.009585472 0.0012370897 -0.075945996 0.100387916 0.011288277 0.093877956 -0.0044576516 -0.036163334
-0.08704768 0.053343385 -0.08387194 0.020643158 0.10489969 0.05413879 -0.08255407 -0.016567027
0.09759913 0.061147895 -0.07271975 -0.00013184993 0.06754435 -0.016839111 -0.0011354416 -0.0036920842
0.08761131 -0.03742053 0.062630095 0.07302358 -0.05744994 0.097732045 0.05264444 -0.027374286
-0.051829115 -0.100762054 -0.05246878 0.031605 0.039650295 0.025729623 -0.070683934 -0.055722635
0.08799187 -0.09765732 0.043421093 -0.09608195 -0.04519401 0.029113928 -0.08933295 0.0120831225
0.10834467 -0.032587446 -0.029263044 -0.032816235 0.083602704 0.038184907 -0.0689731 0.101544715
-0.017037679 0.068552405 -0.06793347 -0.058638766 -0.058333747 -0.04543443 -0.03222336 -0.096907444
0.06447524 0.09383754 0.035734896 0.08820088 0.1076968 0.053307004 -0.043372035 -0.018724317
-0.1012831 -0.088205256 0.0075234454 -0.0655133 -0.021950224 -0.00798745 0.0590089 -0.031223156
0.09859282 0.059530344 -0.10185024 0.0027056616 -0.033246927 -0.023132939 -0.029527491 0.07461784
0.04541457 0.009444914 -0.019912839 0.080094784 -0.016488623 0.002149816 -0.06774815 0.052045513
-0.011801135 0.004684581 0.044383492 -0.10417217 0.09374711 0.042314686 -0.0907113 0.04810224
-0.08216525 0.10524585 0.06306941 0.016985763 -0.102714084 -0.09127466 0.034153722 -0.02028707
-0.05097324 -0.07092074 -0.06267557 0.04486602 0.10294026 0.08559735 0.09276075 -0.022691885
0.0022366755 0.073821954 -0.07042288 0.046487994 0.071082346 -0.06264711 0.07793165 0.058589377
0.07326453 0.076420255 0.079751976 -0.030481352 -0.042273868 -0.070478514 0.081269905 -0.095191754
0.016574709 -0.078495115 -0.033663783 -0.064929515 0.067581266 -0.06290792 -0.094746724 -0.029425368
-0.065882 -0.09314199 0.05059316 -0.058965847 0.053445008 0.09887472 0.058249015 -0.08261433
0.032958712 0.06369327 0.10748589 0.047617663 -0.011899076 -0.09163768 0.096666485 -0.006287923
0.07342616 -0.08559673 0.005040291 -0.03109399 -0.05999267 0.080811836 0.008556706 -0.07014445
0.03861459 -0.016133036 -0.05983655 -0.019548472 -0.09055246 -0.08164277 0.072978176 0.046216466
-0.071002245 0.069642775 -0.006873398 -0.07041278 -0.069275066 -0.033092897 0.08031681 -0.06846002
0.10298021 0.09721718 -0.06618854 -0.08100826 -0.029198803 0.029141346 -0.10194364 -0.004773307
0.10810537 -0.0043988866 -0.07629015 -0.05961817 -0.09839863 -0.028438283 0.05514679 -0.009913913
0.05058113 0.068369605 -0.046672195 -0.09852718 -0.0758567 0.026831623 -0.09777876 -0.019482573

fc3.bias f4 [10]
00000000: 5c63 79bd e429 833d a385 6bbd f7a5 86bd
00000010: 5375 4bbd f40f a73d 21f7 3c3d 6d71 8fbd
00000020: e880 a7bc 069f 933d
-0.060885772 0.064044744 -0.057500493 -0.06574624 -0.049672436 0.0815734 0.046134118 -0.07004056
-0.02044721 0.07208066
